Model: "model_1"
__________________________________________________________________________________________________
Layer (type)                    Output Shape         Param #     Connected to                     
==================================================================================================
input (InputLayer)              (None, 6000, 3)      0                                            
__________________________________________________________________________________________________
conv1d_1 (Conv1D)               (None, 6000, 8)      272         input[0][0]                      
__________________________________________________________________________________________________
max_pooling1d_1 (MaxPooling1D)  (None, 3000, 8)      0           conv1d_1[0][0]                   
__________________________________________________________________________________________________
conv1d_2 (Conv1D)               (None, 3000, 16)     1168        max_pooling1d_1[0][0]            
__________________________________________________________________________________________________
max_pooling1d_2 (MaxPooling1D)  (None, 1500, 16)     0           conv1d_2[0][0]                   
__________________________________________________________________________________________________
conv1d_3 (Conv1D)               (None, 1500, 16)     1808        max_pooling1d_2[0][0]            
__________________________________________________________________________________________________
max_pooling1d_3 (MaxPooling1D)  (None, 750, 16)      0           conv1d_3[0][0]                   
__________________________________________________________________________________________________
conv1d_4 (Conv1D)               (None, 750, 32)      3616        max_pooling1d_3[0][0]            
__________________________________________________________________________________________________
max_pooling1d_4 (MaxPooling1D)  (None, 375, 32)      0           conv1d_4[0][0]                   
__________________________________________________________________________________________________
conv1d_5 (Conv1D)               (None, 375, 32)      5152        max_pooling1d_4[0][0]            
__________________________________________________________________________________________________
max_pooling1d_5 (MaxPooling1D)  (None, 188, 32)      0           conv1d_5[0][0]                   
__________________________________________________________________________________________________
conv1d_6 (Conv1D)               (None, 188, 64)      10304       max_pooling1d_5[0][0]            
__________________________________________________________________________________________________
max_pooling1d_6 (MaxPooling1D)  (None, 94, 64)       0           conv1d_6[0][0]                   
__________________________________________________________________________________________________
conv1d_7 (Conv1D)               (None, 94, 64)       12352       max_pooling1d_6[0][0]            
__________________________________________________________________________________________________
max_pooling1d_7 (MaxPooling1D)  (None, 47, 64)       0           conv1d_7[0][0]                   
__________________________________________________________________________________________________
batch_normalization_1 (BatchNor (None, 47, 64)       256         max_pooling1d_7[0][0]            
__________________________________________________________________________________________________
activation_1 (Activation)       (None, 47, 64)       0           batch_normalization_1[0][0]      
__________________________________________________________________________________________________
spatial_dropout1d_1 (SpatialDro (None, 47, 64)       0           activation_1[0][0]               
__________________________________________________________________________________________________
conv1d_8 (Conv1D)               (None, 47, 64)       12352       spatial_dropout1d_1[0][0]        
__________________________________________________________________________________________________
batch_normalization_2 (BatchNor (None, 47, 64)       256         conv1d_8[0][0]                   
__________________________________________________________________________________________________
activation_2 (Activation)       (None, 47, 64)       0           batch_normalization_2[0][0]      
__________________________________________________________________________________________________
spatial_dropout1d_2 (SpatialDro (None, 47, 64)       0           activation_2[0][0]               
__________________________________________________________________________________________________
conv1d_9 (Conv1D)               (None, 47, 64)       12352       spatial_dropout1d_2[0][0]        
__________________________________________________________________________________________________
add_1 (Add)                     (None, 47, 64)       0           max_pooling1d_7[0][0]            
                                                                 conv1d_9[0][0]                   
__________________________________________________________________________________________________
batch_normalization_3 (BatchNor (None, 47, 64)       256         add_1[0][0]                      
__________________________________________________________________________________________________
activation_3 (Activation)       (None, 47, 64)       0           batch_normalization_3[0][0]      
__________________________________________________________________________________________________
spatial_dropout1d_3 (SpatialDro (None, 47, 64)       0           activation_3[0][0]               
__________________________________________________________________________________________________
conv1d_10 (Conv1D)              (None, 47, 64)       12352       spatial_dropout1d_3[0][0]        
__________________________________________________________________________________________________
batch_normalization_4 (BatchNor (None, 47, 64)       256         conv1d_10[0][0]                  
__________________________________________________________________________________________________
activation_4 (Activation)       (None, 47, 64)       0           batch_normalization_4[0][0]      
__________________________________________________________________________________________________
spatial_dropout1d_4 (SpatialDro (None, 47, 64)       0           activation_4[0][0]               
__________________________________________________________________________________________________
conv1d_11 (Conv1D)              (None, 47, 64)       12352       spatial_dropout1d_4[0][0]        
__________________________________________________________________________________________________
add_2 (Add)                     (None, 47, 64)       0           add_1[0][0]                      
                                                                 conv1d_11[0][0]                  
__________________________________________________________________________________________________
batch_normalization_5 (BatchNor (None, 47, 64)       256         add_2[0][0]                      
__________________________________________________________________________________________________
activation_5 (Activation)       (None, 47, 64)       0           batch_normalization_5[0][0]      
__________________________________________________________________________________________________
spatial_dropout1d_5 (SpatialDro (None, 47, 64)       0           activation_5[0][0]               
__________________________________________________________________________________________________
conv1d_12 (Conv1D)              (None, 47, 64)       12352       spatial_dropout1d_5[0][0]        
__________________________________________________________________________________________________
batch_normalization_6 (BatchNor (None, 47, 64)       256         conv1d_12[0][0]                  
__________________________________________________________________________________________________
activation_6 (Activation)       (None, 47, 64)       0           batch_normalization_6[0][0]      
__________________________________________________________________________________________________
spatial_dropout1d_6 (SpatialDro (None, 47, 64)       0           activation_6[0][0]               
__________________________________________________________________________________________________
conv1d_13 (Conv1D)              (None, 47, 64)       12352       spatial_dropout1d_6[0][0]        
__________________________________________________________________________________________________
add_3 (Add)                     (None, 47, 64)       0           add_2[0][0]                      
                                                                 conv1d_13[0][0]                  
__________________________________________________________________________________________________
batch_normalization_7 (BatchNor (None, 47, 64)       256         add_3[0][0]                      
__________________________________________________________________________________________________
activation_7 (Activation)       (None, 47, 64)       0           batch_normalization_7[0][0]      
__________________________________________________________________________________________________
spatial_dropout1d_7 (SpatialDro (None, 47, 64)       0           activation_7[0][0]               
__________________________________________________________________________________________________
conv1d_14 (Conv1D)              (None, 47, 64)       12352       spatial_dropout1d_7[0][0]        
__________________________________________________________________________________________________
batch_normalization_8 (BatchNor (None, 47, 64)       256         conv1d_14[0][0]                  
__________________________________________________________________________________________________
activation_8 (Activation)       (None, 47, 64)       0           batch_normalization_8[0][0]      
__________________________________________________________________________________________________
spatial_dropout1d_8 (SpatialDro (None, 47, 64)       0           activation_8[0][0]               
__________________________________________________________________________________________________
conv1d_15 (Conv1D)              (None, 47, 64)       12352       spatial_dropout1d_8[0][0]        
__________________________________________________________________________________________________
add_4 (Add)                     (None, 47, 64)       0           add_3[0][0]                      
                                                                 conv1d_15[0][0]                  
__________________________________________________________________________________________________
batch_normalization_9 (BatchNor (None, 47, 64)       256         add_4[0][0]                      
__________________________________________________________________________________________________
activation_9 (Activation)       (None, 47, 64)       0           batch_normalization_9[0][0]      
__________________________________________________________________________________________________
spatial_dropout1d_9 (SpatialDro (None, 47, 64)       0           activation_9[0][0]               
__________________________________________________________________________________________________
conv1d_16 (Conv1D)              (None, 47, 64)       8256        spatial_dropout1d_9[0][0]        
__________________________________________________________________________________________________
batch_normalization_10 (BatchNo (None, 47, 64)       256         conv1d_16[0][0]                  
__________________________________________________________________________________________________
activation_10 (Activation)      (None, 47, 64)       0           batch_normalization_10[0][0]     
__________________________________________________________________________________________________
spatial_dropout1d_10 (SpatialDr (None, 47, 64)       0           activation_10[0][0]              
__________________________________________________________________________________________________
conv1d_17 (Conv1D)              (None, 47, 64)       8256        spatial_dropout1d_10[0][0]       
__________________________________________________________________________________________________
add_5 (Add)                     (None, 47, 64)       0           add_4[0][0]                      
                                                                 conv1d_17[0][0]                  
__________________________________________________________________________________________________
batch_normalization_11 (BatchNo (None, 47, 64)       256         add_5[0][0]                      
__________________________________________________________________________________________________
activation_11 (Activation)      (None, 47, 64)       0           batch_normalization_11[0][0]     
__________________________________________________________________________________________________
spatial_dropout1d_11 (SpatialDr (None, 47, 64)       0           activation_11[0][0]              
__________________________________________________________________________________________________
conv1d_18 (Conv1D)              (None, 47, 64)       12352       spatial_dropout1d_11[0][0]       
__________________________________________________________________________________________________
batch_normalization_12 (BatchNo (None, 47, 64)       256         conv1d_18[0][0]                  
__________________________________________________________________________________________________
activation_12 (Activation)      (None, 47, 64)       0           batch_normalization_12[0][0]     
__________________________________________________________________________________________________
spatial_dropout1d_12 (SpatialDr (None, 47, 64)       0           activation_12[0][0]              
__________________________________________________________________________________________________
conv1d_19 (Conv1D)              (None, 47, 64)       12352       spatial_dropout1d_12[0][0]       
__________________________________________________________________________________________________
add_6 (Add)                     (None, 47, 64)       0           add_5[0][0]                      
                                                                 conv1d_19[0][0]                  
__________________________________________________________________________________________________
batch_normalization_13 (BatchNo (None, 47, 64)       256         add_6[0][0]                      
__________________________________________________________________________________________________
activation_13 (Activation)      (None, 47, 64)       0           batch_normalization_13[0][0]     
__________________________________________________________________________________________________
spatial_dropout1d_13 (SpatialDr (None, 47, 64)       0           activation_13[0][0]              
__________________________________________________________________________________________________
conv1d_20 (Conv1D)              (None, 47, 64)       8256        spatial_dropout1d_13[0][0]       
__________________________________________________________________________________________________
batch_normalization_14 (BatchNo (None, 47, 64)       256         conv1d_20[0][0]                  
__________________________________________________________________________________________________
activation_14 (Activation)      (None, 47, 64)       0           batch_normalization_14[0][0]     
__________________________________________________________________________________________________
spatial_dropout1d_14 (SpatialDr (None, 47, 64)       0           activation_14[0][0]              
__________________________________________________________________________________________________
conv1d_21 (Conv1D)              (None, 47, 64)       8256        spatial_dropout1d_14[0][0]       
__________________________________________________________________________________________________
add_7 (Add)                     (None, 47, 64)       0           add_6[0][0]                      
                                                                 conv1d_21[0][0]                  
__________________________________________________________________________________________________
bidirectional_1 (Bidirectional) (None, 47, 32)       10368       add_7[0][0]                      
__________________________________________________________________________________________________
conv1d_22 (Conv1D)              (None, 47, 16)       528         bidirectional_1[0][0]            
__________________________________________________________________________________________________
batch_normalization_15 (BatchNo (None, 47, 16)       64          conv1d_22[0][0]                  
__________________________________________________________________________________________________
bidirectional_2 (Bidirectional) (None, 47, 32)       4224        batch_normalization_15[0][0]     
__________________________________________________________________________________________________
conv1d_23 (Conv1D)              (None, 47, 16)       528         bidirectional_2[0][0]            
__________________________________________________________________________________________________
batch_normalization_16 (BatchNo (None, 47, 16)       64          conv1d_23[0][0]                  
__________________________________________________________________________________________________
bidirectional_3 (Bidirectional) (None, 47, 32)       4224        batch_normalization_16[0][0]     
__________________________________________________________________________________________________
conv1d_24 (Conv1D)              (None, 47, 16)       528         bidirectional_3[0][0]            
__________________________________________________________________________________________________
batch_normalization_17 (BatchNo (None, 47, 16)       64          conv1d_24[0][0]                  
__________________________________________________________________________________________________
attentionD0 (SeqSelfAttention)  [(None, 47, 16), (No 1089        batch_normalization_17[0][0]     
__________________________________________________________________________________________________
add_8 (Add)                     (None, 47, 16)       0           batch_normalization_17[0][0]     
                                                                 attentionD0[0][0]                
__________________________________________________________________________________________________
layer_normalization_1 (LayerNor (None, 47, 16)       32          add_8[0][0]                      
__________________________________________________________________________________________________
feed_forward_1 (FeedForward)    (None, 47, 16)       4240        layer_normalization_1[0][0]      
__________________________________________________________________________________________________
add_9 (Add)                     (None, 47, 16)       0           layer_normalization_1[0][0]      
                                                                 feed_forward_1[0][0]             
__________________________________________________________________________________________________
layer_normalization_2 (LayerNor (None, 47, 16)       32          add_9[0][0]                      
__________________________________________________________________________________________________
attentionD (SeqSelfAttention)   [(None, 47, 16), (No 1089        layer_normalization_2[0][0]      
__________________________________________________________________________________________________
add_10 (Add)                    (None, 47, 16)       0           layer_normalization_2[0][0]      
                                                                 attentionD[0][0]                 
__________________________________________________________________________________________________
layer_normalization_3 (LayerNor (None, 47, 16)       32          add_10[0][0]                     
__________________________________________________________________________________________________
feed_forward_2 (FeedForward)    (None, 47, 16)       4240        layer_normalization_3[0][0]      
__________________________________________________________________________________________________
add_11 (Add)                    (None, 47, 16)       0           layer_normalization_3[0][0]      
                                                                 feed_forward_2[0][0]             
__________________________________________________________________________________________________
layer_normalization_4 (LayerNor (None, 47, 16)       32          add_11[0][0]                     
__________________________________________________________________________________________________
lstm_4 (LSTM)                   (None, 47, 16)       2112        layer_normalization_4[0][0]      
__________________________________________________________________________________________________
lstm_5 (LSTM)                   (None, 47, 16)       2112        layer_normalization_4[0][0]      
__________________________________________________________________________________________________
attentionP (SeqSelfAttention)   [(None, 47, 16), (No 1089        lstm_4[0][0]                     
__________________________________________________________________________________________________
attentionS (SeqSelfAttention)   [(None, 47, 16), (No 1089        lstm_5[0][0]                     
__________________________________________________________________________________________________
up_sampling1d_1 (UpSampling1D)  (None, 94, 16)       0           layer_normalization_4[0][0]      
__________________________________________________________________________________________________
up_sampling1d_8 (UpSampling1D)  (None, 94, 16)       0           attentionP[0][0]                 
__________________________________________________________________________________________________
up_sampling1d_15 (UpSampling1D) (None, 94, 16)       0           attentionS[0][0]                 
__________________________________________________________________________________________________
conv1d_25 (Conv1D)              (None, 94, 64)       3136        up_sampling1d_1[0][0]            
__________________________________________________________________________________________________
conv1d_32 (Conv1D)              (None, 94, 64)       3136        up_sampling1d_8[0][0]            
__________________________________________________________________________________________________
conv1d_39 (Conv1D)              (None, 94, 64)       3136        up_sampling1d_15[0][0]           
__________________________________________________________________________________________________
up_sampling1d_2 (UpSampling1D)  (None, 188, 64)      0           conv1d_25[0][0]                  
__________________________________________________________________________________________________
up_sampling1d_9 (UpSampling1D)  (None, 188, 64)      0           conv1d_32[0][0]                  
__________________________________________________________________________________________________
up_sampling1d_16 (UpSampling1D) (None, 188, 64)      0           conv1d_39[0][0]                  
__________________________________________________________________________________________________
conv1d_26 (Conv1D)              (None, 188, 64)      20544       up_sampling1d_2[0][0]            
__________________________________________________________________________________________________
conv1d_33 (Conv1D)              (None, 188, 64)      20544       up_sampling1d_9[0][0]            
__________________________________________________________________________________________________
conv1d_40 (Conv1D)              (None, 188, 64)      20544       up_sampling1d_16[0][0]           
__________________________________________________________________________________________________
up_sampling1d_3 (UpSampling1D)  (None, 376, 64)      0           conv1d_26[0][0]                  
__________________________________________________________________________________________________
up_sampling1d_10 (UpSampling1D) (None, 376, 64)      0           conv1d_33[0][0]                  
__________________________________________________________________________________________________
up_sampling1d_17 (UpSampling1D) (None, 376, 64)      0           conv1d_40[0][0]                  
__________________________________________________________________________________________________
conv1d_27 (Conv1D)              (None, 376, 32)      10272       up_sampling1d_3[0][0]            
__________________________________________________________________________________________________
conv1d_34 (Conv1D)              (None, 376, 32)      10272       up_sampling1d_10[0][0]           
__________________________________________________________________________________________________
conv1d_41 (Conv1D)              (None, 376, 32)      10272       up_sampling1d_17[0][0]           
__________________________________________________________________________________________________
up_sampling1d_4 (UpSampling1D)  (None, 752, 32)      0           conv1d_27[0][0]                  
__________________________________________________________________________________________________
up_sampling1d_11 (UpSampling1D) (None, 752, 32)      0           conv1d_34[0][0]                  
__________________________________________________________________________________________________
up_sampling1d_18 (UpSampling1D) (None, 752, 32)      0           conv1d_41[0][0]                  
__________________________________________________________________________________________________
cropping1d_1 (Cropping1D)       (None, 750, 32)      0           up_sampling1d_4[0][0]            
__________________________________________________________________________________________________
cropping1d_2 (Cropping1D)       (None, 750, 32)      0           up_sampling1d_11[0][0]           
__________________________________________________________________________________________________
cropping1d_3 (Cropping1D)       (None, 750, 32)      0           up_sampling1d_18[0][0]           
__________________________________________________________________________________________________
conv1d_28 (Conv1D)              (None, 750, 32)      7200        cropping1d_1[0][0]               
__________________________________________________________________________________________________
conv1d_35 (Conv1D)              (None, 750, 32)      7200        cropping1d_2[0][0]               
__________________________________________________________________________________________________
conv1d_42 (Conv1D)              (None, 750, 32)      7200        cropping1d_3[0][0]               
__________________________________________________________________________________________________
up_sampling1d_5 (UpSampling1D)  (None, 1500, 32)     0           conv1d_28[0][0]                  
__________________________________________________________________________________________________
up_sampling1d_12 (UpSampling1D) (None, 1500, 32)     0           conv1d_35[0][0]                  
__________________________________________________________________________________________________
up_sampling1d_19 (UpSampling1D) (None, 1500, 32)     0           conv1d_42[0][0]                  
__________________________________________________________________________________________________
conv1d_29 (Conv1D)              (None, 1500, 16)     3600        up_sampling1d_5[0][0]            
__________________________________________________________________________________________________
conv1d_36 (Conv1D)              (None, 1500, 16)     3600        up_sampling1d_12[0][0]           
__________________________________________________________________________________________________
conv1d_43 (Conv1D)              (None, 1500, 16)     3600        up_sampling1d_19[0][0]           
__________________________________________________________________________________________________
up_sampling1d_6 (UpSampling1D)  (None, 3000, 16)     0           conv1d_29[0][0]                  
__________________________________________________________________________________________________
up_sampling1d_13 (UpSampling1D) (None, 3000, 16)     0           conv1d_36[0][0]                  
__________________________________________________________________________________________________
up_sampling1d_20 (UpSampling1D) (None, 3000, 16)     0           conv1d_43[0][0]                  
__________________________________________________________________________________________________
conv1d_30 (Conv1D)              (None, 3000, 16)     2320        up_sampling1d_6[0][0]            
__________________________________________________________________________________________________
conv1d_37 (Conv1D)              (None, 3000, 16)     2320        up_sampling1d_13[0][0]           
__________________________________________________________________________________________________
conv1d_44 (Conv1D)              (None, 3000, 16)     2320        up_sampling1d_20[0][0]           
__________________________________________________________________________________________________
up_sampling1d_7 (UpSampling1D)  (None, 6000, 16)     0           conv1d_30[0][0]                  
__________________________________________________________________________________________________
up_sampling1d_14 (UpSampling1D) (None, 6000, 16)     0           conv1d_37[0][0]                  
__________________________________________________________________________________________________
up_sampling1d_21 (UpSampling1D) (None, 6000, 16)     0           conv1d_44[0][0]                  
__________________________________________________________________________________________________
conv1d_31 (Conv1D)              (None, 6000, 8)      1416        up_sampling1d_7[0][0]            
__________________________________________________________________________________________________
conv1d_38 (Conv1D)              (None, 6000, 8)      1416        up_sampling1d_14[0][0]           
__________________________________________________________________________________________________
conv1d_45 (Conv1D)              (None, 6000, 8)      1416        up_sampling1d_21[0][0]           
__________________________________________________________________________________________________
detector (Conv1D)               (None, 6000, 1)      89          conv1d_31[0][0]                  
__________________________________________________________________________________________________
picker_P (Conv1D)               (None, 6000, 1)      89          conv1d_38[0][0]                  
__________________________________________________________________________________________________
picker_S (Conv1D)               (None, 6000, 1)      89          conv1d_45[0][0]                  
==================================================================================================
Total params: 378,311
Trainable params: 376,423
Non-trainable params: 1,888
